autoencoder_models/encoder_state.pt (torch, 15261 bytes, 6 tensors)

0.weight f4 [64, 10]
0	0x3e3a6f2b	0.1820647
1	0x3e703c14	0.23460418
2	0x3cfb6901	0.030689718
3	0x3ebcf494	0.36905348
4	0x3c0a9938	0.008459382
5	0x3d85a68f	0.06525909
6	0xbe81dbee	-0.25363106
7	0x3ea58bd4	0.32333243
8	0x3e34323d	0.1759729
9	0xbe8719b4	-0.26386797
10	0x3e292dcb	0.16521375
11	0xbc7c9690	-0.015416756
12	0x3ea97283	0.33095178
13	0xbda4f753	-0.08054986
14	0x3e20ba21	0.15696003
15	0xbe16f985	-0.14743622
16	0x3e01f1e4	0.1268993
17	0x3e7ed5ba	0.24886218
18	0xbe9e95e2	-0.30973727
19	0x3cee6083	0.029098755
20	0xbe0dd825	-0.13851984
21	0xbd2b49a4	-0.041818276
22	0xbe7c13fe	-0.24617001
23	0x3eae204d	0.3400902
24	0xbe574242	-0.21021369
25	0xbd678d87	-0.056531455
26	0xbe0b70e1	-0.13617279
27	0xbe4a0d5d	-0.1973166
28	0x3db7c0bf	0.0897231
29	0xbea70acb	-0.32625422
30	0x3e5659d1	0.209327
31	0xbeb4956d	-0.35270253
32	0x3e8a2da4	0.26987946
33	0x3d822e4f	0.06356489
34	0xbe45c5f0	-0.19313788
35	0x3e1c2001	0.15246584
36	0xbbc19f73	-0.0059089004
37	0x3ecc8507	0.39945242
38	0xbd2bc27e	-0.04193353
39	0xbe374100	-0.1789589
40	0xbd868199	-0.065676875
41	0xbde31fd2	-0.110900536
42	0x3ea9494a	0.33063728
43	0x3f017351	0.50566584
44	0x3d3bc05d	0.04583775
45	0x3cb76c60	0.022390544
46	0x3e757c4f	0.23973201
47	0xbd3d2894	-0.046181276
48	0x3e868ba2	0.26278406
49	0xbe76d0ff	-0.24103163
50	0xbe83e71e	-0.25762266
51	0xbced1672	-0.028941367
52	0xbe70996b	-0.23496024
53	0x3ec0043f	0.3750324
54	0x3df1e1ad	0.11810622
55	0x3e548088	0.20752156
56	0x3e50f61b	0.20406382
57	0xbd233265	-0.03984298
58	0x3e99bba6	0.30025977
59	0xbe07ebe3	-0.13273577
60	0xbd321de6	-0.043485545
61	0xbea874f2	-0.32901722
62	0x3cbd80ec	0.023132764
63	0xbce3754b	-0.02776589
64	0xbbf22ba7	-0.0073904577
65	0xbcbc7a34	-0.02300749
66	0x3e394c54	0.18095523
67	0xbdfaa7fc	-0.12239072
68	0xbe6dbbd8	-0.23216188
69	0xbe9940ec	-0.29932344
70	0x3e438f57	0.19097649
71	0x3d19dd31	0.03756446
72	0x3ed72753	0.4202219
73	0xbeab5942	-0.33466536
74	0xbec84359	-0.39113882
75	0xbea717fe	-0.32635492
76	0xbe80c8c6	-0.25153178
77	0x3e8aa8f6	0.27082032
78	0x3b425d5d	0.00296577
79	0x3e504928	0.20340407
80	0xbe75c3e4	-0.24000508
81	0xbe2bc6d0	-0.1677506
82	0x3ecd96bb	0.4015406
83	0xbe5287ab	-0.20559566
84	0x3e8211be	0.2540416
85	0xbe2225a2	-0.15834668
86	0x3e491832	0.19638136
87	0xbe393db6	-0.18089947
88	0xbe94c36e	-0.2905535
89	0x3e188f84	0.14898497
90	0xbcbf297b	-0.02333521
91	0xbe299907	-0.16562282
92	0x3e88c598	0.26713252
93	0x3e76726f	0.2406709
94	0xbec0d68a	-0.3766368
95	0xbe6ca0b6	-0.23108181
96	0x3e9250a1	0.2857714
97	0xbd6a0fd7	-0.057144012
98	0xbe20b3cb	-0.15693586
99	0xbec6bf4c	-0.38817823
100	0xbe7a74c1	-0.244586
101	0x3ce828a6	0.028339695
102	0x3cafbd80	0.021452665
103	0xbea54f93	-0.32287273
104	0xbb8931a6	-0.0041868268
105	0xbe9d8458	-0.30765033
106	0xbea9c112	-0.33155113
107	0xbd91b9ea	-0.071155384
108	0xbebd4cb1	-0.36972573
109	0xbe78b633	-0.24288253
110	0x3e82567c	0.25456607
111	0xbc3cb331	-0.011517332
112	0x3db43cb2	0.08800639
113	0xbeb7bf9f	-0.35888383
114	0xbe95ec5f	-0.292819
115	0xbe027cba	-0.12742892
116	0xba4d53f4	-0.00078326394
117	0xbe3b5d44	-0.18297297
118	0xbe4e68c3	-0.20157151
119	0xbe84bd43	-0.25925645
120	0xbdb70701	-0.08936883
121	0xbe815c76	-0.25265855
122	0xbdb93418	-0.09043139
123	0xbe905f9c	-0.28197944
124	0xbe98a6e2	-0.2981482
125	0xbe6cedb1	-0.23137547
126	0xbe5d6636	-0.21621022
127	0xbe19f784	-0.15035826
128	0x3e25037e	0.16114613
129	0xbe401b1d	-0.18760343
130	0x3ebc5fda	0.3679188
131	0x3dd9a8e1	0.10627914
132	0xbf0232a0	-0.508585
133	0x3e65258d	0.22377606
134	0xbdecc0a3	-0.1156018
135	0x39edd684	0.0004536399
136	0xbe5ec95e	-0.21756503
137	0xbefdc206	-0.4956209
138	0x3e7c7db4	0.24657327
139	0xbd582f98	-0.052779764
140	0x3d432105	0.04763891
141	0xbeaaa861	-0.33331588
142	0x3e931c2b	0.28732428
143	0xbe67ecf7	-0.22648989
144	0xbe2af890	-0.16696382
145	0x3d065964	0.032800093
146	0x3e1b00bf	0.15137003
147	0x3edf1224	0.43568528
148	0x3e4b52f4	0.19855863
149	0xbea42514	-0.32059538
150	0x3e48e80b	0.19619767
151	0xbd3237e1	-0.04351032
152	0xbe46fc75	-0.19432242
153	0xbe7507e8	-0.23928797
154	0x3eb5025a	0.35353357
155	0xbe0624eb	-0.1310002
156	0x3e8a7b10	0.27047014
157	0xbc7d11c2	-0.015446128
158	0x3e69745d	0.22798295
159	0xbd8f5824	-0.06999233
160	0x3eeae9b8	0.45881438
161	0x3e68a572	0.22719362
162	0xbdef29b8	-0.11677879
163	0xbe85fa81	-0.26167682
164	0x3e85762f	0.2606673
165	0x3dc89a78	0.097950876
166	0xbddb9857	-0.10722416
167	0x3ebe592e	0.37177414
168	0x3dd92ed9	0.106046386
169	0xbc530c57	-0.01288136
170	0xbe269804	-0.16268927
171	0xbc701edf	-0.014655798
172	0x3e7d9a70	0.24765944
173	0xbdabfb6a	-0.08397563
174	0xbe5a7d27	-0.21336804
175	0xbe1d4167	-0.1535698
176	0xbe40c9d8	-0.18826997
177	0x3e983d8b	0.29734454
178	0x3e342d96	0.17595515
179	0xbe931824	-0.28729355
180	0x3e2bcf2e	0.16778252
181	0x3e78adfb	0.24285118
182	0x39b21621	0.00033967293
183	0xbda8509c	-0.082185
184	0x3e860ce3	0.26181707
185	0x3e845359	0.2584484
186	0x3e2e5f57	0.17028557
187	0xbd85edc5	-0.065394916
188	0xbce00a7c	-0.02734875
189	0x3df1ed51	0.11812843
190	0x390f7d91	0.0001368432
191	0xbb3da0fa	-0.002893506
192	0x3e515ebc	0.20446295
193	0x3ed944f9	0.42435434
194	0x3c1f8065	0.0097352015
195	0x3c5d4d12	0.0135071445
196	0x3dda8dbd	0.10671566
197	0xbd802069	-0.06256182
198	0x3e0fc2fd	0.14039226
199	0x3e33f6a8	0.1757456
200	0xbea547db	-0.32281384
201	0xbe0e6df6	-0.13909134
202	0x3ea82f9b	0.3284882
203	0x3e32c80f	0.17459129
204	0xbd267b39	-0.040644858
205	0xbe3037b8	-0.17208755
206	0xbe5a600d	-0.21325703
207	0xbe298791	-0.1655562
208	0xbe19a514	-0.15004379
209	0x3db426e7	0.087964825
210	0x3e88bd3a	0.26706868
211	0x3e23abd1	0.15983512
212	0xbeba51bd	-0.36390486
213	0xbe38f419	-0.18061866
214	0xbd372943	-0.044717085
215	0x3ec98b42	0.39364058
216	0x3d82be3c	0.063839406
217	0xbdd0932c	-0.10184321
218	0x3e3c8e79	0.18413724
219	0xbdd10825	-0.102066316
220	0xbe3df404	-0.18550116
221	0x3e5a01e7	0.21289788
222	0xbe740922	-0.23831609
223	0x3df2edbd	0.11861751
224	0xbef0738b	-0.46963152
225	0x3edd5042	0.43225294
226	0x3e9c331b	0.3050774
227	0x3c5879a5	0.013212596
228	0xbdc527c7	-0.096267276
229	0xbeb0cd24	-0.3453151
230	0xbe84f77e	-0.25970072
231	0x3e907c26	0.28219718
232	0x3e7a3955	0.24435933
233	0x3e269f5b	0.16271727
234	0x3e9039e4	0.28169167
235	0xbb959c16	-0.004565726
236	0xbd5a7b1f	-0.053340074
237	0xbe1199c8	-0.14218819
238	0xbeb77a43	-0.35835466
239	0xbe7a275a	-0.24429074
240	0x3e263819	0.16232337
241	0xbdc9a84b	-0.098465525
242	0xbd04236c	-0.032260343
243	0xbe8dd7ac	-0.27703607
244	0x3c5fe5d1	0.013665632
245	0xbe81b07b	-0.25329956
246	0xbe68fb78	-0.22752178
247	0x3e2b2f0d	0.16717167
248	0xbe0b530b	-0.13605897
249	0x3e890b51	0.26766446
250	0x3cac3be6	0.021024656
251	0xbe12cf70	-0.14336944
252	0xbe8ddafb	-0.2770613
253	0xbe0ed0fc	-0.13946909
254	0xbd4b701c	-0.049667463
255	0xbe6fd749	-0.23421969

0.bias f4 [64]
0	0xbd348f59	-0.04408202
1	0xbe904a06	-0.28181475
2	0x3ebeb657	0.3724849
3	0x3e77bc98	0.24193037
4	0xbd510caa	-0.051037468
5	0xbde9ed1f	-0.114221804
6	0x3e2ebfc4	0.1706534
7	0xbcd899bc	-0.026440494
8	0xbcb9d87d	-0.022686237
9	0xbd624a5c	-0.055246696
10	0x3e968804	0.29400647
11	0xbe4432d9	-0.19160022
12	0x3eb78118	0.35840678
13	0x3e4d0768	0.20022357
14	0x3d6c7d9f	0.05773699
15	0x3e9cecec	0.30649507
16	0x3d9f4aee	0.077779636
17	0xbe5f3f73	-0.21801548
18	0xbd3abaf1	-0.045588437
19	0x3e9d31dc	0.30702102
20	0xbe472f3f	-0.19451617
21	0x3dccd76c	0.10002026
22	0xbe5d1985	-0.21591766
23	0x3e4259ed	0.18979616
24	0x3e33134c	0.1748783
25	0x3dad805c	0.08471748
26	0x3e14ff18	0.14550436
27	0x3d801edf	0.06255888
28	0x3e80f917	0.2519004
29	0xbde76a6f	-0.112995975
30	0xbd17e2b7	-0.037081446
31	0x3e5c9b34	0.2154358
32	0x3ec24175	0.37940565
33	0x3e94136e	0.28921074
34	0xbe046422	-0.12928823
35	0x3e7d1a07	0.2471696
36	0x3cba90a2	0.022774044
37	0xbd842346	-0.064520404
38	0xbe65496a	-0.22391286
39	0xbd050c76	-0.032482587
40	0x3e82f449	0.25577
41	0x3bf03fef	0.00733184
42	0xbe182f70	-0.14861846
43	0x3dc4ba65	0.096058644
44	0xbccf7ba5	-0.025327513
45	0x3e9e1b80	0.30880356
46	0xbe5a6ff6	-0.21331772
47	0xbda42258	-0.08014363
48	0xbea41a97	-0.32051536
49	0xbdf60273	-0.12012186
50	0x3e64b942	0.22336295
51	0x3eabe0fd	0.3357009
52	0x3e331755	0.17489369
53	0x3ebda395	0.37038866
54	0x3d3682c9	0.04455832
55	0x3e53d70f	0.20687507
56	0x3e97bfa5	0.296384
57	0x3ea6f5f7	0.3260953
58	0xbe138cd3	-0.14409189
59	0x3ea9dbc8	0.33175492
60	0x3e941ceb	0.28928313
61	0xbdb0a282	-0.08624746
62	0xbd8765d6	-0.066112205
63	0xbe6e3731	-0.23263241

2.weight f4 [32, 64]
0	0x3dc410ca	0.09573515
1	0xbd6717ca	-0.05641917
2	0x3d1014c1	0.035176042
3	0x3d67a5c0	0.056554556
4	0x3d39a33c	0.045321688
5	0x3dd61051	0.10452331
6	0xbc30b851	-0.010786132
7	0x3cdada1b	0.026715329
8	0x3de188a0	0.11012387
9	0xbdf1439d	-0.11780474
10	0x3dea533b	0.11441656
11	0x3d52f577	0.051503625
12	0x3dadd1f4	0.08487311
13	0xbd88c3fb	-0.06678005
14	0xbdf6db8f	-0.12053596
15	0x3bbbdb82	0.0057329545
16	0x3db9bfa5	0.090697564
17	0x3b61a95b	0.003443322
18	0x3e08ec23	0.13371329
19	0x3e24b513	0.160847
20	0xbcd0d6e3	-0.025493091
21	0x3de1f754	0.11033502
22	0x3e303584	0.17207915
23	0xbcb5f081	-0.022209408
24	0xbdd658de	-0.10466169
25	0xbd46fbbc	-0.048579916
26	0x3de55f2c	0.11199793
27	0xbd8c6446	-0.06855063
28	0xbe08c65a	-0.13356915
29	0x3d8d5c57	0.06902378
30	0x3df87406	0.12131505
31	0x3e36d63b	0.1785516
32	0xbdd3c768	-0.10340768
33	0xbc4b7a1d	-0.012419251
34	0x3d8ba65c	0.0681884
35	0x3e4314c5	0.19050892
36	0x3dc2f613	0.09519591
37	0x3d8f3ab2	0.06993617
38	0x3e01fca3	0.1269403
39	0x3e156a8b	0.14591424
40	0xbd3ef87b	-0.04662369
41	0xbcf5a841	-0.029987456
42	0x3e2ba202	0.1676102
43	0xbcab140a	-0.020883579
44	0xbd4e219f	-0.050325032
45	0x3dae1e6e	0.08501898
46	0x3de1cd43	0.11025479
47	0x3e062ace	0.13102266
48	0x3d59ef26	0.053206585
49	0xbd67cfbd	-0.0565946
50	0x3e5dc356	0.21656546
51	0xbd6e0009	-0.058105502
52	0x3d7ace44	0.061231866
53	0x3df84ff0	0.12124622
54	0xbc47e691	-0.012200967
55	0x3e46d619	0.1941761
56	0xbd782364	-0.060580626
57	0xbca4048c	-0.0200217
58	0x3d64bf8b	0.055846732
59	0xbcc6b203	-0.024254804
60	0xbdaea5b4	-0.08527699
61	0x3e199b2e	0.15000603
62	0x3c9f464c	0.0194427
63	0xbde6952c	-0.11258921
64	0xbda3acbe	-0.07991932
65	0x3e94e338	0.29079604
66	0x3dc060d5	0.09393469
67	0x3e09a04e	0.13440058
68	0xbb0f867c	-0.0021900227
69	0xbe067d85	-0.1313382
70	0x3cad446a	0.021150786
71	0x3de0c8ce	0.109758005
72	0x3c527e75	0.0128475325
73	0x3da3f9fc	0.08006665
74	0x3d8a2ff6	0.06747429
75	0xbc36f008	-0.011165626
76	0x3ba792c2	0.0051139304
77	0xbcf5b2ca	-0.02999248
78	0x3e015316	0.12629351
79	0x3dfffba4	0.124991685
80	0x3d1f69a6	0.038919114
81	0xbd478a62	-0.048715957
82	0x3df19a96	0.11797063
83	0x3dee297e	0.11629008
84	0x3c562df7	0.013072482
85	0x3de40487	0.11133676
86	0xbe16e3c8	-0.14735329
87	0x3e1a8f77	0.1509379
88	0x3e1146fb	0.14187233
89	0xbdfc2b1a	-0.123129085
90	0x3e1f6074	0.15564138
91	0xbda4d5cc	-0.08048591
92	0xbbd36c4b	-0.0064521185
93	0x3cd67ae2	0.026181642
94	0xbdbec890	-0.09315598
95	0x3e2b952b	0.16756122
96	0x3c5fcf70	0.013660297
97	0x3df6fa36	0.12059443
98	0xbe33ce47	-0.17559157
99	0x3e0e678e	0.1390669
100	0xbd6e9b97	-0.05825385
101	0xbe300154	-0.17188007
102	0xbcb850f9	-0.022499548
103	0x3e25fe2a	0.16210237
104	0x3e35b0c6	0.17743215
105	0x3d14e993	0.036355566
106	0xbd26e571	-0.040746156
107	0xbd31440a	-0.043277778
108	0x3e25c38c	0.16187876
109	0x3ddca57c	0.10773751
110	0x3de9173f	0.11381387
111	0x3a246df1	0.0006272486
112	0xbc14ab19	-0.009073996
113	0x3e654a6c	0.22391671
114	0xbba51d91	-0.005038925
115	0x3dca51d2	0.09878887
116	0x3e121f6e	0.14269802
117	0x3e5c0c02	0.21488956
118	0xbcecbb55	-0.02889792
119	0xbcd5c66e	-0.026095595
120	0x3c1dfcd1	0.009642796
121	0x3d91e1cb	0.07123145
122	0x3d7f514e	0.062333398
123	0xbd5b4c84	-0.053539768
124	0x3d0becc4	0.034161344
125	0xbd19cb20	-0.03754723
126	0x3e2f32ac	0.17109174
127	0x3d14fece	0.036375813
128	0xbdda036e	-0.106451854
129	0x3d729bd7	0.05923065
130	0xbdf7db68	-0.12102395
131	0x3c8b4a6d	0.017003262
132	0xbe0ba669	-0.13637699
133	0x3b650ab7	0.0034949013
134	0x3d24268a	0.040075816
135	0xbb597b10	-0.0033184923
136	0x3e293426	0.165238
137	0xbe486da1	-0.1957307
138	0xbc1804f8	-0.009278528
139	0xbdd4f134	-0.10397568
140	0x3ca98b43	0.020696288
141	0x3d33e5dc	0.043920383
142	0xbcf60681	-0.030032398
143	0x3dd1836a	0.10230143
144	0x3e527fe4	0.20556599
145	0x3d8ce87f	0.068802826
146	0x3e2002e0	0.15626097
147	0xbd954389	-0.07288272
148	0xbde89b16	-0.11357705
149	0x3e13921c	0.14411205
150	0xbd91dcfb	-0.07122227
151	0x3df2676b	0.11836132
152	0x3e37ade7	0.17937432
153	0x3da64bbd	0.08119915
154	0x3e1e9198	0.15485227
155	0x3dbe9171	0.093050845
156	0x3cc501ea	0.024048764
157	0xbcac30fc	-0.021019451
158	0x3e4a4829	0.1975409
159	0x3cf2b6e2	0.029628221
160	0xbd941b96	-0.07231824
161	0x3e740678	0.23830593
162	0x3e08c000	0.13354492
163	0x3da43076	0.08017056
164	0x3de4fcfb	0.11181065
165	0xbc32f205	-0.01092196
166	0x3d5482d8	0.051882595
167	0x3e2ebe4a	0.17064777
168	0x3e079328	0.1323973
169	0x3d4030ad	0.04692142
170	0x3dcf886e	0.10133444
171	0x3b72e428	0.0037062261
172	0x3dc99454	0.098427445
173	0x3b8b5d6d	0.0042530806
174	0x3e695967	0.2278801
175	0x3d9c421e	0.07629798
176	0x3e176e06	0.14788064
177	0x3d247cd5	0.04015811
178	0x3d0dd28c	0.03462462
179	0x3dc22319	0.094793506
180	0x3e3d0d67	0.18462144
181	0x3e522d28	0.20525038
182	0x3e2bf25c	0.16791672
183	0x3d1a1f40	0.03762746
184	0xbccc08e0	-0.024906576
185	0x3d553653	0.05205376
186	0x3d9c4dae	0.07632004
187	0x3d389dc9	0.04507235
188	0x3dda6fa4	0.10665825
189	0x3dae01be	0.08496426
190	0x3e1920b7	0.14953886
191	0x3c205723	0.0097864
192	0xbd45f370	-0.048327863
193	0xbd723f65	-0.05914249
194	0xbd36976a	-0.044577993
195	0xbd7e927f	-0.06215143
196	0x3de63378	0.11240286
197	0x3d7340ea	0.05938808
198	0x3ddc187c	0.107468575
199	0xbc0ef056	-0.008724293
200	0x3ba56d28	0.005048413
201	0x3d0bbb24	0.034114018
202	0xbe08c96b	-0.13358085
203	0x3a7d7687	0.0009668846
204	0xbc82c34f	-0.015962271
205	0xbd9c961b	-0.07645818
206	0xbde7d75c	-0.113203734
207	0x3dd593d4	0.104285866
208	0x3dc10049	0.094238825
209	0x3d2ec094	0.042664126
210	0x3de73a98	0.11290473
211	0xbd66097c	-0.05616139
212	0xbcf23d41	-0.029570224
213	0x3d27bbfb	0.040950757
214	0xbced5931	-0.028973194
215	0xbd2042e5	-0.039126296
216	0xbde67c4b	-0.11254176
217	0x3d098df8	0.033582658
218	0xbdbf528a	-0.09341915
219	0xbc03806a	-0.008026222
220	0x3dde1c54	0.10845247
221	0xbd47b967	-0.048760798
222	0xbd289329	-0.041155968
223	0x3d9c4dde	0.076320395
224	0xbd6de015	-0.05807503
225	0xbc98c2f6	-0.018647652
226	0x3def097c	0.11671731
227	0xbd6c050b	-0.057621997
228	0xbddd8ee6	-0.10818271
229	0xbd818980	-0.06325054
230	0xbd2810ff	-0.041031834
231	0xbd9aa988	-0.07551867
232	0xbda4ba29	-0.0804332
233	0x3d1fa88b	0.038979094
234	0x3c359a7f	0.011084198
235	0xbd5c7ea6	-0.05383172
236	0xbdcfbdd7	-0.10143631
237	0xbd52348a	-0.051319636
238	0xbd7233bd	-0.059131373
239	0xbd40bb78	-0.047053784
240	0xbde6f188	-0.11276537
241	0x3ca89591	0.020579131
242	0xbdd8b14b	-0.10580691
243	0xbddc34ec	-0.107522815
244	0xbdd1a04e	-0.10235654
245	0x3d4080cb	0.046997827
246	0xbd951687	-0.072796874
247	0xbd6d7235	-0.057970244
248	0x3da9b114	0.08285728
249	0x3d5ca201	0.053865436
250	0x3d85bafe	0.065298066
251	0xbe0010ff	-0.12506483
252	0xbdc66907	-0.09688001
253	0xbd5b675f	-0.05356538
254	0x3dc2da77	0.09514325
255	0x3a466388	0.0007567932

2.bias f4 [32]
0	0x3e28e061	0.16491844
1	0x3dee9b88	0.11650759
2	0x3e00cf1f	0.1257901
3	0xbd63db5a	-0.05562911
4	0x3e1b6601	0.1517563
5	0x3ca1ef0d	0.019767309
6	0x3dffab5e	0.124838576
7	0x3d8733f2	0.06601705
8	0x3dbe84cf	0.09302675
9	0x3e1c73a6	0.15278491
10	0xbc1be412	-0.009514825
11	0x3e807274	0.2508732
12	0xbd3ecb58	-0.046580642
13	0x3c90b40d	0.01766398
14	0xbdf4e32f	-0.11957394
15	0x3e0055f5	0.1253279
16	0xbce99789	-0.02851464
17	0xbd9b0f6b	-0.075713
18	0x3d71903e	0.05897545
19	0x3d9d1e74	0.07671824
20	0xbdfb54b2	-0.12272014
21	0x3d3833ea	0.044971384
22	0x3db0809b	0.086182795
23	0xbb1d0489	-0.0023959002
24	0xbd673b50	-0.05645305
25	0x3ddf0577	0.10889714
26	0xbda8e5a4	-0.082469255
27	0xbd58e22a	-0.05295006
28	0x3cdd7338	0.02703248
29	0x3d2ad8bd	0.041710604
30	0x3d4c71ed	0.049913336
31	0x3d3e9b10	0.046534598

4.weight f4 [8, 32]
0	0xbdd87ec1	-0.105710514
1	0x3d396724	0.04526438
2	0xbe8f1455	-0.279452
3	0x3e14a1ca	0.14514843
4	0xbe31512d	-0.17316122
5	0xbd160602	-0.036626823
6	0xbe76f224	-0.24115807
7	0xbc9e6cfe	-0.01933908
8	0xbd76b4da	-0.060231067
9	0xbe816318	-0.25270915
10	0x3de64753	0.11244073
11	0xbe3d0a7d	-0.18461032
12	0x3e9e2e17	0.3089454
13	0x3e0e9b94	0.13926536
14	0x3e101f80	0.14074516
15	0x3daf8a54	0.08571306
16	0x3ce8debe	0.028426524
17	0x3e188c3c	0.14897245
18	0x3e40b7f9	0.1882018
19	0xbe7685d4	-0.24074489
20	0xbd225be8	-0.03963843
21	0xbea92f38	-0.33043838
22	0x3bf955ca	0.007609104
23	0xbda14fab	-0.078765236
24	0x3e1d1c15	0.15342744
25	0xbddd5b16	-0.10808389
26	0x3aff0300	0.001945585
27	0xbe2d82cc	-0.16944426
28	0xbe80034b	-0.25002512
29	0x3d77f529	0.060536537
30	0xbd8d18e5	-0.06889514
31	0xbe0e83ff	-0.1391754
32	0x3e41ca04	0.18924719
33	0xbe1ddd3f	-0.1541643
34	0xbdd3f525	-0.10349492
35	0x3db96afc	0.09053609
36	0x3e09536b	0.13410728
37	0xbe18707e	-0.14886662
38	0x3d6af863	0.057365786
39	0x3ce3a1f0	0.027787179
40	0xbe792dac	-0.24333829
41	0x3d9558be	0.07292317
42	0xbc859674	-0.016307093
43	0xbe57f05a	-0.2108778
44	0x3e0f65d0	0.14003682
45	0xbe37bebc	-0.17943853
46	0x3ddc5729	0.10758812
47	0xbe3d8b14	-0.18510085
48	0xbe731f43	-0.23742394
49	0x3e0ba736	0.13638005
50	0xbe08a3da	-0.13343754
51	0x3d9b50a1	0.07583738
52	0x3dbe65a2	0.09296729
53	0xbe85c3d1	-0.2612596
54	0xbe80d309	-0.25161007
55	0x3da0abca	0.07845266
56	0x3e1dd5df	0.15413617
57	0x3d8a483c	0.06752059
58	0x3dfef49a	0.12448998
59	0x3dbf1aa3	0.093312524
60	0x3d396a8b	0.045267623
61	0xbe4d75a3	-0.20064406
62	0x3e1dcf4e	0.15411112
63	0x3d2f178b	0.04274706
64	0xbd175969	-0.036950503
65	0x3e13b0b9	0.14422883
66	0xbe645c3e	-0.22300813
67	0x3d638bad	0.055553127
68	0xbe0da550	-0.13832593
69	0x3cd1473b	0.02554666
70	0x3b1add1a	0.0023630322
71	0x3e20e246	0.15711316
72	0x3de915a9	0.113810845
73	0xbe39b460	-0.18135214
74	0xbcdafb64	-0.0267312
75	0xbd069e89	-0.032866035
76	0x3dfd6b78	0.12374014
77	0xbdfd56b8	-0.12370056
78	0x3e249182	0.16071132
79	0x3dca1bd1	0.09868587
80	0xbde8b6cd	-0.113629915
81	0x3d729a37	0.059229102
82	0x3e5e4793	0.21706991
83	0xbe19eed3	-0.1503251
84	0x3db58ace	0.088643655
85	0xbddd3917	-0.10801905
86	0x3e0b43f7	0.13600145
87	0x3e1a1756	0.15047964
88	0x3deefe32	0.11669578
89	0xbd86bb8f	-0.06578743
90	0xbd135080	-0.035965443
91	0x3d7122ff	0.058871266
92	0xbb7c15d9	-0.003846517
93	0x3e0d2fa7	0.13787709
94	0xbc7cc4f8	-0.01542782
95	0x3df59731	0.11991728
96	0x3ca0e641	0.019641044
97	0xbe35462b	-0.17702548
98	0xbe46b467	-0.19404756
99	0xbe41dc52	-0.18931702
100	0xbcc7cccc	-0.024389647
101	0x3e17f7c6	0.14840612
102	0x3dd845de	0.10560201
103	0xbe4279b0	-0.18991733
104	0xbe17de83	-0.14830975
105	0x3dd0899d	0.10182498
106	0xbd867df5	-0.06566993
107	0xbe1dd5dd	-0.15413614
108	0xbd9dfc48	-0.077141345
109	0xbdcd08be	-0.10011433
110	0x3c03c319	0.00804212
111	0xbd07b181	-0.033128265
112	0x3e246989	0.16055883
113	0x3df53767	0.11973458
114	0x3e7f69dc	0.24942726
115	0x3dbc8576	0.09205143
116	0xbda1a84c	-0.07893428
117	0xbdf7a2df	-0.12091612
118	0xbe23ed83	-0.16008572
119	0x3db888aa	0.090104416
120	0xbcaeb870	-0.021328181
121	0xbe0c4aa2	-0.13700345
122	0xbe197868	-0.14987338
123	0x3e6b379b	0.2297043
124	0x3e773a51	0.2414334
125	0x3e8504ef	0.25980327
126	0xbd963ec7	-0.073361926
127	0x3e12eaf8	0.14347446
128	0xbd8b26ff	-0.06794547
129	0xbdbdd56f	-0.09269225
130	0xbe031b1f	-0.12803315
131	0x3e042ae6	0.1290699
132	0xbe377585	-0.17915924
133	0x3e2dcbd7	0.1697229
134	0x3d3fe4fd	0.04684924
135	0x3de304ff	0.11084937
136	0x3e5a1dc3	0.21300416
137	0x3d15ff77	0.036620583
138	0x3dac9992	0.08427729
139	0x3e893c70	0.26803923
140	0xbe38e3f6	-0.1805571
141	0xbd81025e	-0.0629928
142	0xbd3c8abe	-0.046030752
143	0x3e2c79d5	0.1684335
144	0x3e257f72	0.16161898
145	0x3de50233	0.1118206
146	0xbd8734df	-0.06601881
147	0xbdbe6f26	-0.09298544
148	0xbdf8a7c9	-0.121413775
149	0x3e678644	0.22609812
150	0xbd1d7ceb	-0.03844921
151	0xbdbab1a8	-0.091159165
152	0x3e157ac1	0.14597608
153	0xbdabe538	-0.083933294
154	0xbd978f91	-0.0740043
155	0xbe330927	-0.1748396
156	0xbe30da04	-0.17270666
157	0x3e525ebf	0.20543955
158	0xbe131e00	-0.14366913
159	0x3e3b70ac	0.183047
160	0x3e5d5309	0.21613707
161	0xbd0a95e0	-0.03383434
162	0x3d5bf07a	0.053696133
163	0x3e007f1c	0.12548488
164	0x3e1c3206	0.15253457
165	0x3df79b62	0.12090184
166	0x3e64f073	0.22357349
167	0xbe594c11	-0.21220423
168	0x3d28a74b	0.041175168
169	0x3e216eb9	0.15764894
170	0xbe414f64	-0.18877941
171	0x3e046feb	0.12933318
172	0xbe52edfa	-0.20598593
173	0xbe42ccd3	-0.19023447
174	0x3c566df3	0.013087737
175	0xbdbf3f3c	-0.09338233
176	0xbd478b0d	-0.048716594
177	0xbdc81abe	-0.09770726
178	0x3d523ae6	0.0513257
179	0x3e83652d	0.25663128
180	0xbd207140	-0.039170504
181	0xbddc6f61	-0.10763431
182	0xbd97d7ee	-0.07414232
183	0xbe0af984	-0.13571745
184	0xbe12ff70	-0.14355254
185	0xbd9443a7	-0.07239466
186	0x3de3787e	0.111069664
187	0xbdda5437	-0.10660594
188	0x3d6e313d	0.058152426
189	0xbe281c9d	-0.16417165
190	0xbe39b4ce	-0.18135378
191	0xbd7f2d53	-0.062299084
192	0xbd5aeb12	-0.053446837
193	0xbd2b5329	-0.041827355
194	0x3d789abf	0.060694452
195	0x3d3e7600	0.046499252
196	0x3e232d57	0.15935265
197	0x3d6d5555	0.057942707
198	0xbcdd6b7f	-0.027028797
199	0x3e523534	0.20528108
200	0xbdd96c83	-0.106164
201	0x3e4f17b1	0.20223881
202	0x3e8ecfb8	0.27892852
203	0xbe82954a	-0.25504524
204	0xbd939bea	-0.072074726
205	0xbe4e4c21	-0.20146228
206	0xbe2175bc	-0.15767568
207	0xbcdfff52	-0.027343426
208	0xbe085411	-0.13313319
209	0xbceb1949	-0.02869858
210	0x3e6bfdd9	0.23046054
211	0xbe3487e1	-0.17629959
212	0xbdc7019b	-0.09717103
213	0x3da5a013	0.08087172
214	0xbe38f43b	-0.18061917
215	0x3d351d59	0.04421744
216	0x3e0b5c9f	0.13609551
217	0x3e8747c7	0.2642195
218	0x3d76ff04	0.060301796
219	0xbe3e0e36	-0.18560109
220	0xbe1bd10d	-0.15216465
221	0xbd92cc2b	-0.07167848
222	0xbd071587	-0.032979514
223	0x3e9b7726	0.3036434
224	0xbe195b97	-0.14976345
225	0xbe63ddf0	-0.22252631
226	0xbe5ef03d	-0.21771331
227	0x3ddfcba1	0.10927511
228	0xbd5bbb40	-0.053645372
229	0x3e2399ae	0.15976593
230	0x3ceda049	0.029007094
231	0xbe311692	-0.17293766
232	0x3d14eaf7	0.036356892
233	0x3e1a1a94	0.15049201
234	0x3e38cb77	0.18046366
235	0xbc11ee17	-0.008906863
236	0xbe11e6e8	-0.1424824
237	0xbe8802f9	-0.26564768
238	0x3dd9f09f	0.10641598
239	0xbe1a9bc6	-0.15098485
240	0xbd32da97	-0.043665495
241	0xbcc6e694	-0.02427987
242	0x3e20a136	0.15686497
243	0xbd8a4370	-0.06751144
244	0xbe09e087	-0.13464557
245	0xbdf47960	-0.11937213
246	0x3e2e2df3	0.17009716
247	0x3bae38b7	0.0053168195
248	0x3db792d2	0.089635506
249	0xbe8a43bd	-0.27004805
250	0x3e0f4d61	0.13994361
251	0xbd558b16	-0.052134596
252	0xbdae07db	-0.08497592
253	0x3d577c99	0.05260906
254	0xbd2ec0cb	-0.04266433
255	0xbcc72d43	-0.024313575

4.bias f4 [8]
0	0xbd9517ce	-0.07279931
1	0xbcaa1cbb	-0.020765653
2	0xbdc0be97	-0.09411352
3	0x3e11c7ea	0.14236417
4	0xbe383fe9	-0.1799313
5	0x3dff9742	0.12480022
6	0x3e6bd7f4	0.23031598
7	0xbc903c16	-0.017606776
